…
igl.signed_distance_fast_winding_number
return iglhelpers.e2p(S)
Fin S = sdf.query(queryPts)
gridS = sdf.query(grid)
SDF.query
queries.shape = (32768, 3)
igl.signed_distance_fast_winding_number
return iglhelpers.e2p(S)
Fin gridS = sdf.query(grid)
Model: "model"
_________________________________________________________________
Layer (type)                 Output Shape              Param #   
=================================================================
input_1 (InputLayer)         [(None, 3)]               0         
_________________________________________________________________
dense (Dense)                (None, 32)                128       
_________________________________________________________________
dense_1 (Dense)              (None, 32)                1056      
_________________________________________________________________
dense_2 (Dense)              (None, 32)                1056      
_________________________________________________________________
dense_3 (Dense)              (None, 32)                1056      
_________________________________________________________________
dense_4 (Dense)              (None, 32)                1056      
_________________________________________________________________
dense_5 (Dense)              (None, 32)                1056      
_________________________________________________________________
dense_6 (Dense)              (None, 32)                1056      
_________________________________________________________________
dense_7 (Dense)              (None, 32)                1056      
_________________________________________________________________
dense_8 (Dense)              (None, 1)                 33        
=================================================================
Total params: 7,553
Trainable params: 7,553
Non-trainable params: 0
_________________________________________________________________
sdfModel.train
Epoch 1/100
1/1 [==============================] - ETA: 0s - batch: 0.0000e+00 - size: 100.0000 - loss: 0.1296 - mse: 0.0942 - mae: 0.1296ining/Adam/dense_6/bias/m/Initializer/zeros: (Const): /job:localhost/replica:0/task:0/device:GPU:0
…
