…
training/Adam/dense_4/bias/m/Initializer/zeros: (Const): /job:localhost/replica:0/task:0/device:GPU:0
training/Adam/dense_5/kernel/m/Initializer/zeros/shape_as_tensor: (Const): /job:localhost/replica:0/task:0/device:GPU:0
training/Adam/dense_5/kernel/m/Initializer/zeros/Const: (Const): /job:localhost/replica:0/task:0/device:GPU:0
training/Adam/dense_5/bias/m/Initializer/zeros: (Const): /job:localhost/replica:0/task:0/device:GPU:0
training/Adam/dense_6/kernel/m/Initializer/zeros/shape_as_tensor: (Const): /job:localhost/replica:0/task:0/device:GPU:0
training/Adam/dense_6/kernel/m/Initializer/zeros/Const: (Const): /job:localhost/replica:0/task:0/device:GPU:0
tra
dense (Dense)                (None, 32)                128       
_________________________________________________________________
dense_1 (Dense)              (None, 32)                1056      
_________________________________________________________________
dense_2 (Dense)              (None, 32)                1056      
_________________________________________________________________
dense_3 (Dense)              (None, 32)                1056      
_________________________________________________________________
dense_4 (Dense)              (None, 32)                1056      
_________________________________________________________________
dense_5 (Dense)              (None, 32)                1056      
_________________________________________________________________
dense_6 (Dense)              (None, 32)                1056      
_________________________________________________________________
dense_7 (Dense)              (None, 32)                1056      
_________________________________________________________________
dense_8 (Dense)              (None, 1)                 33        
=================================================================
Total params: 7,553
Trainable params: 7,553
Non-trainable params: 0
_________________________________________________________________
sdfModel.train
Epoch 1/100
 1/49 [..............................] - ETA: 1:05 - batch: 0.0000e+00 - size: 2048.0000 - loss: 0.4894 - mse: 0.3085 - mae: 0.4894
…
